nn_model/garment_nn_model_1.pt (torch, 20918 bytes, 5 tensors)

fc1.weight f4 [64, 37]
000000 a8 80 d3 3d 79 7b 04 3e 1c dd 64 3d 98 16 d1 3d
       0.103272736 0.12937726 0.05587493 0.102093875
000010 a2 cb 28 bc 60 0e c8 3a da e6 85 bd a6 7e 49 3d
       -0.010302456 0.0015263073 -0.06538172 0.049193047
000020 55 66 01 3e 3e fb e0 3b b8 ef d5 3d 98 68 4b 3d
       0.12636693 0.006865888 0.10446113 0.049660295
000030 fc 84 e2 3d a2 6b 3a 3d b4 84 6c 3d 78 a1 43 3c
       0.11060521 0.045512803 0.057743743 0.011940353
000040 f5 2b a0 3d 94 f0 52 3c a8 20 a1 bd 61 ee 04 3d
       0.07820884 0.012874741 -0.07867557 0.0324539
000050 df a8 15 bd bd 91 3f ba 8b 75 35 bc ca f1 77 3d
       -0.036538 -0.00073077885 -0.011075388 0.060533322
000060 43 6a 0b be 49 bc a7 bd e8 37 be bd 9f a5 da bd
       -0.13614754 -0.081902094 -0.09288007 -0.10676121
000070 6b b9 c5 3c c7 9f 12 be 1e 26 28 3e 5a ce 02 be
       0.024136266 -0.14318763 0.1642079 -0.1277403
000080 cc 96 04 3e d8 b6 91 3a 74 f5 e3 bd fa 24 04 3e
       0.1294815 0.0011117114 -0.11130801 0.1290473
000090 9a e1 56 3e 74 e9 ed 3d 5f 63 bb 3c 2a ca d7 bc
       0.20984498 0.11616793 0.022874532 -0.026341517
0000a0 fd 54 23 3c d2 00 11 bc 62 d0 cd 3d 5c 80 cf 3d
       0.009968993 -0.008850293 0.100495115 0.101319045
0000b0 2f 32 8c 3d 6c 7d 0d bd ae 1f 8a 3d 4b 9a 92 3c
       0.06845509 -0.03454344 0.06744324 0.017895838
0000c0 6a 84 8f 3d 96 a2 a5 bd ab 37 f1 bd 6f 26 99 bd
       0.07007678 -0.080876514 -0.11778196 -0.07478034
0000d0 a1 63 ee bd f4 f0 f5 3d cd f0 f4 3c e5 79 67 3d
       -0.116400965 0.12008849 0.029899979 0.056512732
0000e0 11 ce fd 3c 0b d4 01 bc ea 8a fa 3d 54 36 ea bd
       0.03098205 -0.00792409 0.12233527 -0.114361435
0000f0 a4 30 a1 3c 3d cd e3 bd 1a 2c 4f 3d c1 47 d8 bd
       0.019676514 -0.111231305 0.050579168 -0.10560561
000100 f2 14 00 3d db 38 cb bc a1 a2 b8 3d e3 83 e1 bd
       0.031269975 -0.024807384 0.09015394 -0.110114835
000110 f1 7f 03 be 39 90 7a bd 58 9d fa 3d 49 c0 df ba
       -0.12841775 -0.061172698 0.12237042 -0.0017070855
000120 aa a3 03 3e a4 df f6 bc 62 e7 f1 bd b3 a9 c6 bd
       0.12855402 -0.030135937 -0.11811711 -0.09700336
000130 38 ff 3a bd bd 32 3f bd b1 6c 9b bb 0c ef 7e 3d
       -0.04565355 -0.046679247 -0.0047431816 0.06223969
000140 fc b9 1e bc 95 02 61 bd 37 0e 6a 3d 45 dd cf bc
       -0.009687897 -0.054934103 0.057142463 -0.025374064
000150 c4 74 48 3d 5f 73 af bc 15 35 92 3d 52 8f 83 bd
       0.04893948 -0.021417318 0.07139031 -0.064238206
000160 c1 4f 4b bd 99 41 ee 3c 3e 1a 80 b8 39 d6 28 bd
       -0.049636606 0.029084014 -6.1084036e-05 -0.041219924
000170 bb b5 1c 3d 0c fa 1e 3d 37 f7 c7 bc 14 ef 8c bd
       0.03825925 0.038812682 -0.024409873 -0.06881538
000180 2e 7b de 3d fb 13 f4 3b ef a4 49 bd e1 a4 31 be
       0.108633384 0.007448671 -0.04922956 -0.17348053
000190 b5 e9 aa bd bd 5e 32 bd 19 97 0d bd 52 64 0c bd
       -0.08345357 -0.04354738 -0.034567926 -0.03427536
0001a0 15 48 87 3d f5 0f 8d bd f8 7a d2 bd c0 bd b0 bd
       0.066055454 -0.06887809 -0.10277361 -0.08629942
0001b0 53 c3 d9 bd 72 eb a4 bc 0d 54 c1 3e 46 68 45 3d
       -0.10632958 -0.0201318 0.37759438 0.048195146
0001c0 25 b3 e0 3b 8f 16 30 bd 02 49 a2 bd 77 ff 65 bd
       0.006857293 -0.042990264 -0.079240814 -0.056151833
0001d0 32 ab b0 3c 81 00 fd bd 59 af 41 bc 68 d5 bc bd
       0.021566007 -0.12353612 -0.011821591 -0.092203915
0001e0 f3 fd 2a bd 99 b6 04 bd 96 f9 80 3c 6e 73 d9 bd
       -0.04174609 -0.0324007 0.015744012 -0.106177196
0001f0 5e a1 f9 bd b9 5a 8e bd cc f0 51 bc d2 65 6f bd
       -0.121889815 -0.06950898 -0.012813758 -0.058446713
000200 2b 4d 19 3e f9 ac 82 bd 16 9f d2 3d a8 20 4a 3d
       0.14970843 -0.06380648 0.102842495 0.04934755
000210 d6 37 29 be f7 7b d8 3d 7a 62 4c 3d 7c a0 82 bc
       -0.16525206 0.105705194 0.049898602 -0.015945666
000220 57 40 f0 bd b8 f2 2d be 64 76 25 bd 4f 4b d7 bc
       -0.11731022 -0.16987121 -0.04039611 -0.026281027
000230 1f cb ba 3d 16 36 29 be c7 e5 0a 3e 41 b0 76 bd
       0.091207735 -0.16524538 0.13564216 -0.060226683
000240 1e 72 49 bd 9b 10 be 3d 05 c6 f1 3d 96 f2 69 3e
       -0.049181096 0.09280511 0.11805347 0.22846445
000250 c1 e6 25 3e 25 37 3b be 5b 76 48 3c d6 8f 98 bd
       0.16201307 -0.18282755 0.012235249 -0.074493095
000260 df 9e a3 3b 15 58 c4 bd 4b a0 0e 3e 90 e8 26 be
       0.004993304 -0.09587113 0.13928334 -0.16299653
000270 d7 6b 89 3d f5 f5 6f 3d 90 19 62 3d c5 e3 20 bc
       0.06710022 0.058584172 0.05520016 -0.0098199295
000280 03 1a 18 3e 69 3c ba 3d 9d e4 75 3d 1c 26 2b be
       0.14853673 0.090935536 0.060032476 -0.16713756
000290 44 e9 6e 3c 67 ec e3 3c 23 e5 82 bd cf 26 73 3d
       0.014581982 0.027822686 -0.063913606 0.059363183
0002a0 fc 42 bf 3c 06 58 33 be 0a f4 cc 3c fd ce 64 3c
       0.02334737 -0.17514047 0.02501871 0.0139653655
0002b0 ce fe b6 3d bd 8d 23 bd 1f a3 e6 bd 04 fc b8 bd
       0.08935319 -0.039930094 -0.11261582 -0.09032443
0002c0 4e 9b d3 bd 9f 97 6f 3d 48 31 ff 3d 5f e5 26 be
       -0.103323564 0.058494207 0.124605715 -0.16298436
0002d0 d5 33 23 3e 56 ee a5 3b 96 5a de bc 37 b3 50 bd
       0.15937741 0.0050638122 -0.027142804 -0.050952163
0002e0 f3 22 24 3e 1a 8b 28 3d 7a 5a 19 3d f2 52 54 3b
       0.16028957 0.041148283 0.0374398 0.0032398072
0002f0 4e 0d 67 3c 6b 47 70 3c 0a 5f 85 bd 72 f7 09 bd
       0.014102293 0.014665465 -0.06512268 -0.033683248
000300 fb b6 3e 3d 00 71 b8 3d 1a 19 59 3c 59 16 17 3c
       0.046561223 0.09005928 0.013250614 0.009221637
000310 68 12 33 3c fb f8 c8 3c 70 80 7c 3c 19 cb 76 3c
       0.010929681 0.024532786 0.015411481 0.015063071
000320 23 a1 20 bd 78 b3 5e bd b2 4f 86 3d ae e6 02 3d
       -0.039216172 -0.054370373 0.065581694 0.031958275
000330 2c 7d 55 bd e0 b4 21 bd 37 6c 12 bd 60 45 98 bd
       -0.052121326 -0.039479136 -0.035747733 -0.07435107
000340 ee 2d d5 bc 48 bc 3f 3c 6d 84 b2 3d 59 29 71 3d
       -0.026022878 0.011702605 0.087166645 0.058877323
000350 a3 ce 14 be 4c 6e c6 bd 33 d0 de bb 53 a2 30 3e
       -0.1453195 -0.09689006 -0.0067997216 0.17249422
000360 c7 ca f8 3c a8 c2 bd bc 0e eb 4e 3d 0a aa df bd
       0.03037013 -0.023164108 0.050517134 -0.10921104
000370 62 c3 a5 bd ce 07 9f 3e 76 f0 47 bd e2 0a ea ba
       -0.08093907 0.31060642 -0.048813306 -0.0017856027
000380 f1 fa 8c bd 45 a2 86 3c 88 a9 ca 3d 75 fc 7c 3c
       -0.06883801 0.016434798 0.09895617 0.01544105
000390 33 91 44 bd a6 6d f3 bc 93 87 98 bd 59 97 d0 3d
       -0.047990035 -0.02971537 -0.07447734 0.10185117
0003a0 6e e5 6a 3d f8 08 b4 3d 84 e5 86 3d 80 ae be bc
       0.057347707 0.08790773 0.065867454 -0.023276567
0003b0 c9 ac fa bc a0 08 8f bd 79 fe ee bd 2c bc 01 be
       -0.030599969 -0.06984067 -0.116696306 -0.12669438
0003c0 bf af 81 3c bb f3 a4 bc ea b3 05 bd 5a d9 d3 bd
       0.015830873 -0.020135751 -0.032642283 -0.10344191
0003d0 c4 96 1c bd e9 f8 90 bd eb ae b5 bd c3 d2 39 3d
       -0.03822972 -0.07078726 -0.088712536 0.045367014
0003e0 c0 f5 bb 3c 2d b7 3e 3d f2 72 6e bd 23 18 19 bd
       0.022944331 0.04656141 -0.05821509 -0.037376534
0003f0 2e 9d 86 3d e0 e6 55 bd a0 c7 80 3c 44 5c 65 be
       0.065729484 -0.052222133 0.015720189 -0.22398478

fc1.bias f4 [64]
000000 e8 b8 cb bd b1 95 06 3e 3b d8 f2 3d cc 67 39 3b
       -0.099473774 0.1314304 0.11857649 0.0028290628
000010 d6 b5 0a be a3 1d 93 bd 0b 1e 59 bd 5b 16 76 bc
       -0.13545927 -0.07183387 -0.053007167 -0.015019978
000020 5b ec 24 be 34 84 c8 3c 03 15 ce bd 0b db a2 bd
       -0.16105787 0.024477102 -0.100626014 -0.079519354
000030 5d 41 f2 bd 51 e4 d7 3c 2c 62 2a be 8d e3 04 be
       -0.11828873 0.026353987 -0.16639012 -0.12977429
000040 6a 93 a6 3d a3 0e d7 3d 4d 5f 13 3e 3e ef 19 be
       0.08133586 0.105008386 0.14391823 -0.1503267
000050 97 75 96 3d 78 8c a2 bd c9 3b 11 be d1 78 3e bc
       0.07346647 -0.079369485 -0.14182962 -0.011625485
000060 87 23 fe bd ef f6 22 be 7c a9 31 be 47 b7 ac bd
       -0.1240912 -0.1591451 -0.1734981 -0.08433395
000070 46 6e d7 3d 08 70 91 3d 2c 3b 6a bc 34 d3 ab bd
       0.1051908 0.071014464 -0.014296334 -0.08389893
000080 4e 7d f9 bd ef 9b 01 be 7e 69 9b bd 72 b1 d0 3d
       -0.12182103 -0.1265714 -0.075884804 0.10190095
000090 14 58 f2 3c fe 88 a0 bd 3c ec e6 3d e7 ef b7 bd
       0.029583015 -0.07838629 0.11275527 -0.089813046
0000a0 7b 8f f4 bd 9c e2 6d 3c 18 58 c8 bd e7 ef 82 3d
       -0.11941429 0.01451936 -0.097824275 0.06393414
0000b0 31 d9 23 3e 6d 90 ab bd 6a c6 d7 bd 09 ea 1e 3d
       0.1600082 -0.083771564 -0.10535891 0.038797412
0000c0 37 0a 18 be 66 cc bf 3d 65 af d7 bd 3b 43 65 3d
       -0.14847647 0.09365158 -0.10531501 0.05597232
0000d0 3d 62 eb bd 1d 57 d4 bd ff df e8 3b 35 b2 1a 3d
       -0.11493347 -0.10368178 0.0071067805 0.037767608
0000e0 a7 01 a1 3d 01 9a ba 3d bc 79 93 bb da 29 63 bb
       0.07861643 0.09111405 -0.004500596 -0.0034662397
0000f0 08 34 de 3b 99 5d 7d 3c 87 57 c2 3c 44 dd 37 be
       0.006781105 0.01546421 0.023723377 -0.179555

fc2.weight f4 [32, 64]
000000 6a d1 b3 bb 44 81 bd 3d 7f 0c e4 ba 96 fd 0b 3e
       -0.0054876106 0.09253171 -0.0017398744 0.13670954
000010 7d 88 c9 3c c1 af 14 3e 8e 4e 05 3e 05 82 4f bd
       0.024601215 0.1452017 0.13018247 -0.050661106
000020 aa 2f a4 bc e5 f4 b6 3c 6c ae 32 3c 99 27 80 bc
       -0.02004226 0.022333572 0.010905843 -0.015643882
000030 de 9b 8a 3d ea 47 da be 04 71 99 3c a0 d6 de 3d
       0.067680106 -0.4263299 0.018730648 0.1088078
000040 6b ab 9b bd 24 d7 af 3d 16 db ca 3a d7 1d a0 3d
       -0.07601055 0.08585957 0.001547667 0.078181915
000050 24 89 b2 3d 2d ba c8 3c d7 25 c1 3d 86 55 d3 bc
       0.08717564 0.024502838 0.094310455 -0.025797617
000060 22 31 27 3e c4 24 e3 3c c4 88 c1 3c 80 8d b9 3d
       0.16327336 0.027727492 0.023624785 0.09060192
000070 d0 3b 1a 3e 27 7a 1d 3c 80 62 90 ba 18 46 c4 bd
       0.15061879 0.009611643 -0.0011015683 -0.09583682
000080 5a 23 c2 3a b2 14 0c 3d 20 ea 33 3e ff 6c 7e 3b
       0.0014811561 0.034199424 0.1756978 0.003882229
000090 48 e6 ac 3d eb ff 92 bd 5c b8 81 3b 45 60 28 be
       0.0844236 -0.07177719 0.003958745 -0.16442974
0000a0 c3 88 06 bd bc dd 22 3d 38 a0 bf bd 7e ae a4 bd
       -0.03284527 0.039762244 -0.09356731 -0.08041094
0000b0 a2 22 9c bd ca 36 28 3e d6 d7 e2 bd 67 65 8e bd
       -0.07623793 0.1642715 -0.11076324 -0.06952935
0000c0 c0 a5 07 bd 81 43 6f bc 69 b1 76 3d e5 d3 4e bd
       -0.033117056 -0.0146034965 0.060227785 -0.050495047
0000d0 9b af f6 3c d9 75 89 3d 4c 25 71 bd 3b 73 4d 3e
       0.030113032 0.06711931 -0.05887346 0.20063488
0000e0 ca 37 80 3d a4 02 4d 3d 7c ec b2 3d 11 97 29 3e
       0.06260641 0.050051346 0.08736512 0.16561534
0000f0 26 a1 55 3b fe 67 1f be 7a 5d 38 3e 2f 41 4f 3d
       0.0032597273 -0.15567014 0.18004408 0.050599273
000100 c6 1c d8 3d ca f5 49 3d 59 2c 0b 3e 4e 55 dc 3b
       0.10552363 0.04930667 0.13591136 0.0067240363
000110 26 d4 d7 3d 24 01 4a bc 7b 9c b9 bc a4 cb de bc
       0.10538511 -0.0123293735 -0.022657624 -0.027196713
000120 55 d7 f4 bd 34 e4 cc bd 7f ee e0 bd 0c f3 3b 3d
       -0.11955134 -0.10004464 -0.109829895 0.045886084
000130 03 63 e0 3c 3c 9e 81 be af 17 3b bd ff 3d 08 3e
       0.027390962 -0.25316036 -0.045676883 0.133049
000140 0e 23 c7 bd 40 3b b0 3d 4e 27 a2 3d ff 19 84 bd
       -0.09723483 0.08605051 0.07917653 -0.06450271
000150 73 59 80 bc d5 73 a1 3d 89 61 2a 3e 4c 54 1c bc
       -0.015667653 0.07883421 0.16638769 -0.009541582
000160 04 64 e8 3d 80 b8 b2 bd 62 cd 92 bd 24 39 33 3e
       0.113472015 -0.08726597 -0.0716808 0.17502266
000170 84 2d 73 3c af 24 09 3e 00 4b 94 bd 6a 4b c2 bd
       0.014842395 0.133929 -0.072408676 -0.0948704
000180 33 6f d4 3d 12 9b 35 3e fd 3a 4f 3d 60 b1 96 bd
       0.10372772 0.17734936 0.050593365 -0.0735805
000190 18 07 23 3d 88 8b 5e bd bb 05 c8 3d b4 63 d3 b9
       0.039801687 -0.054332286 0.09766718 -0.0004031934
0001a0 1f 36 af 3c fa cc 95 3d 12 23 0e 3d 25 d7 c9 bd
       0.021388112 0.07314487 0.034701414 -0.09855489
0001b0 0c a7 62 3d ab 2f 0a 3e dc d1 24 be d6 d1 b3 3d
       0.05533509 0.13494746 -0.1609568 0.087802574
0001c0 94 41 11 3d 8f 4c b4 b9 a9 91 46 bd c3 a8 40 3b
       0.03546293 -0.00034389316 -0.048478756 0.0029397465
0001d0 57 fd 87 bd 12 0b c2 3d 37 2e a8 3d 43 63 08 3d
       -0.066401176 0.09474768 0.0821194 0.03329779
0001e0 5d 93 ed 3d b2 d3 8d bb 49 e9 46 3d 39 e4 36 bd
       0.11600373 -0.0043282146 0.04856232 -0.044651244
0001f0 bb 6c da 3b c1 92 2a bd 2f f9 ad 3d b5 de 07 3d
       0.0066657937 -0.04164386 0.084947936 0.033171374
000200 4f 68 d1 bd ea 4d 87 3d 62 f7 0a 3d 62 ac 72 bd
       -0.102249734 0.06606658 0.03392733 -0.05924643
000210 81 bb b1 bd 1d ed 07 bd 5b a0 78 bd 6f 18 bd 3d
       -0.08678342 -0.033185113 -0.060699802 0.09233176
000220 2b 4f 6f 3c ca 34 3e bd 4f 0d 3a bc e9 20 94 3c
       0.014606277 -0.046437062 -0.011355712 0.018082099
000230 ed d6 18 bd 27 a6 96 3e a8 8f 32 3d f8 53 fd bd
       -0.037314344 0.2942364 0.043594033 -0.123695314
000240 08 6b c4 3c 78 a6 0d be ef 05 d9 bd ce 46 0f 3c
       0.023976818 -0.13833034 -0.10596835 0.0087449085
000250 11 88 f0 3b 94 fe 99 bc 27 51 bb 3c 22 8a a9 bd
       0.007340439 -0.01879815 0.022865845 -0.082783
000260 e1 f7 b5 bd bb 53 1f bb 55 21 4a bc 06 63 3e be
       -0.0888517 -0.0024311382 -0.012337049 -0.18592462
000270 d0 cc a9 3d 50 74 a7 bd 15 e3 18 3d 70 f6 7d 3d
       0.08291018 -0.08176482 0.037325937 0.0620026
000280 0f f8 ac 3d d5 2f ea bc b2 56 a3 3c dd e7 be bc
       0.08445751 -0.028587261 0.0199388 -0.02330392
000290 26 30 a7 3d 97 c8 3b 3d 69 ab 7c 3d 22 f9 c1 bc
       0.081634805 0.045845594 0.061686907 -0.023678366
0002a0 a2 93 14 be 27 07 a1 bd c1 dd c6 3c 05 3d d5 3d
       -0.14509442 -0.07862692 0.024275662 0.10412029
0002b0 3e a7 23 bd 70 e6 1b 3d 8e 58 e2 3c 47 53 e3 bc
       -0.039954416 0.03806156 0.027630117 -0.02774967
0002c0 20 ae 9f 3b 4c 86 32 bd f5 6e cc 3d 07 ec 8b bc
       0.0048730522 -0.043585107 0.09982101 -0.01708032
0002d0 6b a9 b1 3b 33 47 29 be 04 6b 93 bd 5e 69 20 bd
       0.0054218075 -0.16531067 -0.07198146 -0.039162986
0002e0 de ed 92 3d 80 e2 ef 3c 9d bf 53 bc 96 d9 19 be
       0.07174276 0.029282808 -0.012924102 -0.15024409
0002f0 ba da 63 bc e2 54 ae 3c 9b ba 44 be 1d 89 b2 bc
       -0.013907129 0.02128071 -0.1921181 -0.021793896
000300 51 08 dc bd 86 73 be 3d d6 52 c6 bd 9c 93 c0 bb
       -0.10743774 0.09299378 -0.096837685 -0.0058769714
000310 e3 c1 5f 3d 6d ec 04 be b6 c1 f4 3c 71 d5 1b bd
       0.054628264 -0.12980814 0.029877525 -0.03804535
000320 e4 9f 71 3d 1c 91 db 3d f5 0b 88 bd 0b 43 aa bd
       0.058990374 0.10721037 -0.066429056 -0.08313569
000330 87 d2 8f 3d ac bd ec 3d b8 81 05 bd 43 6d 82 3d
       0.07022577 0.115596145 -0.032594413 0.06368496
000340 bc 6f 81 bd 44 d3 0b bd e4 63 82 3d a1 5e 02 3d
       -0.0632014 -0.034137025 0.06366709 0.031828526
000350 b0 0c d2 bd 74 4a 9a 3c c1 e3 0c be c2 48 af bd
       -0.10256326 0.01883433 -0.13758756 -0.08558799
000360 78 13 3f 3d 83 f5 e7 bc 64 2c a6 bd 8f e4 3d bd
       0.046649426 -0.028315311 -0.081139356 -0.04636055
000370 de ce 1f 3c 20 1e d3 bd d1 6f b4 bc e9 d1 db bd
       0.009753911 -0.1030848 -0.022025974 -0.107333966
000380 73 f3 ca 3c f1 58 ea bd 72 2d b4 bc 0d 91 52 bd
       0.024774289 -0.114427455 -0.021994326 -0.051407862
000390 c2 1a d3 bd 33 e9 68 bd a1 f2 f8 bd d3 49 a6 bd
       -0.10307838 -0.05686302 -0.12155653 -0.081195496
0003a0 d7 44 2a bd f3 4f fe bd da 56 fe bd 14 af d6 3d
       -0.041569557 -0.12417593 -0.12418909 0.10482612
0003b0 f4 b7 5d 3c 9a 87 a4 bd a7 bf f0 3a 69 d9 84 3d
       0.013532627 -0.080336764 0.0018367664 0.0648678
0003c0 6e 92 d5 bd bf 45 b4 bd 43 f0 de bd 5b 1f 05 bd
       -0.1042832 -0.088023655 -0.1088567 -0.032500606
0003d0 16 a8 f5 bc 2c 1f 06 be 6e bd a1 3d 95 fc f6 bd
       -0.029987376 -0.13097829 0.07897459 -0.12059895
0003e0 96 e8 ba 3d ab 49 de bd 82 b6 45 bd b3 a3 a8 bb
       0.091263935 -0.10853895 -0.048269756 -0.0051464676
0003f0 f1 d5 87 bd 9e 60 4f 3e f4 38 fe bd 34 6e 17 bd
       -0.06632603 0.202517 -0.12413207 -0.036970332

fc2.bias f4 [32]
000000 d1 51 d5 3d 2e ce 4e bd 67 82 90 3d 75 b6 92 3d
       0.10415996 -0.050489597 0.07056122 0.07163707
000010 b2 5a d5 bd 77 a4 28 bc bb 32 55 3d 9a 0f 54 bd
       -0.104176894 -0.010293118 0.052050333 -0.05177269
000020 15 f6 06 be 01 a7 1d 3d ed 2d e6 bc 2c 05 73 3c
       -0.1317981 0.038489345 -0.028098071 0.014832776
000030 2a 2d e2 3d 21 32 81 3b 7d 16 4f 3e c7 e5 b7 3d
       0.110437706 0.0039427434 0.20223422 0.089793734
000040 d7 2d 81 bd 3b 78 06 bd d2 40 c6 3d f9 68 0a 3e
       -0.063075714 -0.032829504 0.09680332 0.13516606
000050 1a 56 5f 3d a6 c8 20 3d 3d 06 1a 3e ef b8 38 3d
       0.054525472 0.039253853 0.15041442 0.04509824
000060 c0 61 58 3d 1c f3 86 bd be b1 94 bd cd 67 c0 3d
       0.052827597 -0.06589338 -0.07260464 0.093947984
000070 2b 93 3e 3d c7 70 b5 3d 61 a9 4d bd 63 33 cf bc
       0.04652707 0.08859401 -0.05021036 -0.025293058

fc3.weight f4 [1, 32]
000000 53 8b 7b 3d 83 a1 ba 3d 13 ed bb bd da a0 0f be
       0.061412167 0.09112837 -0.09176078 -0.14026204
000010 07 78 d7 bd 29 e8 e2 bd 97 5b 7e bd 4d 1e eb 3d
       -0.1052094 -0.11079437 -0.062099066 0.11480389
000020 46 5c f6 bd 3d cc 9a bd 06 b6 fe bd b6 3a 89 bd
       -0.120293185 -0.075584866 -0.12437062 -0.06700651
000030 80 76 a5 3d c4 9b bb bd 44 08 8e 3d 9b 57 c4 3d
       0.08079243 -0.09160569 0.0693517 0.09587022
000040 ba 0a 1f bc 30 6c a7 3d f6 af b2 3d 56 f9 30 3e
       -0.009707147 0.08174932 0.08724968 0.17282614
000050 c3 28 86 3d ba 32 17 3e 35 45 1e 3e 22 8e c8 3d
       0.065507434 0.14765444 0.15456088 0.09792735
000060 aa ae ee 3d 0c 93 c3 bd 0d ea cd bd 20 14 d7 3d
       0.11654408 -0.09549531 -0.10054407 0.105018854
000070 c9 19 bb 3d 59 f3 1b 3e 31 9e 81 b9 7e fd d2 bc
       0.091357775 0.15229549 -0.0002472266 -0.02575564
